…
4348/4348 [==============================] - 169s 39ms/step - loss: 0.2752 - accuracy: 0.9218 - val_loss: 2.7819 - val_accuracy: 0.5801
Epoch 14/15
4348/4348 [==============================] - 170s 39ms/step - loss: 0.2240 - accuracy: 0.9253 - val_loss: 2.6504 - val_accuracy: 0.6188
Epoch 15/15
4348/4348 [==============================] - 169s 39ms/step - loss: 0.2060 - accuracy: 0.9368 - val_loss: 3.7334 - val_accuracy: 0.5838
Model: "sequential_1"
_________________________________________________________________
 Layer (type)                Output Shape              Param #
=================================================================
 sequential (Sequential)     (None, 150, 150, 3)       0

 rescaling (Rescaling)       (None, 150, 150, 3)       0

 conv2d (Conv2D)             (None, 148, 148, 32)      896

 max_pooling2d (MaxPooling2D  (None, 74, 74, 32)       0
 )

 conv2d_1 (Conv2D)           (None, 72, 72, 32)        9248

 max_pooling2d_1 (MaxPooling  (None, 36, 36, 32)       0
 2D)

 conv2d_2 (Conv2D)           (None, 34, 34, 32)        9248

 max_pooling2d_2 (MaxPooling  (None, 17, 17, 32)       0
 2D)

 dropout (Dropout)           (None, 17, 17, 32)        0

 flatten (Flatten)           (None, 9248)              0

 dense (Dense)               (None, 128)               1183872

 dense_1 (Dense)             (None, 8)                 1032

=================================================================
Total params: 1,204,296
Trainable params: 1,204,296
Non-trainable params: 0
_________________________________________________________________
Downloading data from file:///home/leon/Documents/biererkennung/test_img/test_img_01.jpg
29749/29749 [==============================] - 0s 0us/step
1/1 [==============================] - 0s 91ms/step
…
